Data/bert_out/bert_fitted_model_2022_v4/topic_embeddings.safetensors (safetensors, 207448 bytes, 1 tensors)

topic_embeddings f4 [135, 384]
000000 86 db 07 bd 17 03 23 3c f8 b1 fd 3b c2 05 d1 ba
       -0.03316834 0.009949467 0.007742163 -0.001594715
000010 15 48 25 3b 6a 11 6e 3a 87 c9 61 3d 2c c6 51 bb
       0.0025219966 0.00090815744 0.055123832 -0.0032008989
000020 d4 95 77 3b 9a 8d d9 ba 75 af eb 3b 05 d2 b1 bc
       0.0037778514 -0.0016597987 0.007192547 -0.02170659
000030 c1 83 d6 bb 99 1f 6b 3b 79 4a 7a bb ef 2b f4 3b
       -0.006546468 0.0035876988 -0.0038191362 0.0074515264
000040 80 71 09 3c 4f 9d 28 bc ee 34 24 bd ec 9d 50 bc
       0.008388877 -0.010291412 -0.04008954 -0.012732964
000050 98 15 10 bd 54 66 5e 3a c7 62 c2 ba 44 9c 36 3c
       -0.035176843 0.0008483876 -0.0014830463 0.011145655
000060 59 12 d2 bc b8 0c 0e 3c 21 68 bb b9 a5 5a 44 3c
       -0.025643514 0.008670025 -0.00035745002 0.011984502
000070 61 67 7d 3c 2b 94 ef bc 33 c4 78 3b a3 8c d1 3c
       0.015466542 -0.029245457 0.003795874 0.025579756
000080 ff 70 24 3c 2d 8f 8b 3b 59 06 fe bb 57 40 d1 3b
       0.010036706 0.0042590112 -0.0077522215 0.0063858437
000090 db 68 03 3b b0 de 6d bb b8 cc f7 ba fb 34 09 bc
       0.0020051512 -0.0036296062 -0.0018905615 -0.008374448
0000a0 cd 9a b7 bb f8 bc 1d bd 1b fa 70 bb 6d 64 3f bb
       -0.0056031705 -0.038510293 -0.0036770168 -0.0029204146
0000b0 aa 05 34 bb 64 b4 0a ba 97 68 77 bb 14 13 a5 bb
       -0.0027469196 -0.00052911625 -0.003775155 -0.0050376747
0000c0 a2 c0 b2 3c ee a8 eb 3b fb ac 7d bc 46 5c e1 bc
       0.02182037 0.007191769 -0.015483136 -0.02750982
0000d0 d2 da 83 bb 8d 0e 10 bc 1d 12 72 3c dd 8e 65 3c
       -0.004023888 -0.008792532 0.014774826 0.014011112
0000e0 5a 89 1d bc 57 ac c9 3b e6 77 af 3c 83 c8 1b bc
       -0.009615267 0.0061545777 0.021419477 -0.009508255
0000f0 7e 7b 88 3b 0d 59 92 3b 53 87 d7 bc 98 9b 31 bc
       0.004165112 0.004466182 -0.026309645 -0.010840319
000100 eb e2 ad 3c 95 49 d1 bb 35 73 25 bc 47 4a 8d 3c
       0.021226367 -0.0063869455 -0.010098268 0.017247332
000110 e7 e5 35 bb 34 5a 47 3c f3 19 19 3c 2c a9 fd 3a
       -0.002775544 0.012167502 0.009344566 0.0019352785
000120 86 7b 28 bc 38 c5 93 3b 42 1f 69 3b bd e9 94 3c
       -0.0102833565 0.0045095943 0.003557161 0.018177861
000130 f9 99 13 3c 54 4e db bc 97 60 a5 3c c3 fa 87 ba
       0.009008878 -0.026770748 0.02018766 -0.0010374415
000140 31 e3 4e bc ce a8 de bc 0b 34 7d bc a0 19 90 3b
       -0.012627409 -0.027180102 -0.015454303 0.004397586
000150 ba 6e 31 bc ba f3 db bb bc d3 9c bb d6 15 32 bc
       -0.010829622 -0.006712404 -0.004785983 -0.010869464
000160 c0 c4 4c bb 16 0a 98 ba f3 a9 f7 bb ab a7 0f 3b
       -0.0031245202 -0.0011599686 -0.0075581013 0.0021920006
000170 89 0a 80 3c c7 fe 1b 3c 00 7d ac bc d0 d5 ed bb
       0.015630024 0.009521193 -0.021055698 -0.0072581545
000180 da 4c 3e bc 67 75 f4 bb 4a 8a 49 bd 79 49 ce 3d
       -0.0116150025 -0.0074602845 -0.04920415 0.100726075
000190 1e a6 a0 3a 7b 57 08 3d 18 d6 66 3b 53 dd 3b 3b
       0.0012256538 0.033286553 0.0035222825 0.0028665855
0001a0 c3 9c 6c 3b 51 69 41 bc 68 ca 83 3b 97 64 9c 3c
       0.003610418 -0.011804895 0.0040219314 0.019090934
0001b0 22 42 cf 3b 36 bd 67 bb 15 4c b8 bc 00 03 9d 3b
       0.0063250223 -0.0035360581 -0.022497216 0.0047916174
0001c0 98 83 14 bc 87 ff d2 ba 31 3c 8c 3c e9 3b dd 3a
       -0.0090645775 -0.0016097882 0.017118545 0.0016878817
0001d0 d1 0d 94 bb 11 9a 9e 3c 54 e9 f5 3a 0f 55 db bc
       -0.0045182486 0.019360574 0.0018761554 -0.026773958
0001e0 e4 24 99 3c d3 9b 83 3c e1 e7 71 bc 6b a8 26 3c
       0.018694349 0.016065514 -0.014764757 0.01017199
0001f0 4e b9 2f bc 19 b3 0f bd 22 a0 f2 3b 96 08 ae 08
       -0.010725332 -0.03508291 0.007404343 1.0474263e-33
000200 f3 a0 86 3c 92 ac e8 bb 2e b6 2c 3c 8c fd 7c 3c
       0.016434168 -0.00710065 0.010541482 0.01544131
000210 bc f2 b5 3c 38 4f 12 3c 35 72 31 bc 73 38 f5 bb
       0.022210471 0.00893002 -0.010830452 -0.007483536
000220 c7 04 a3 bc 10 74 1a bc 62 1a 97 bb 7d 66 c3 bb
       -0.019899739 -0.0094270855 -0.0046112994 -0.0059631453
000230 f1 12 be bc 63 ff 8f bc 29 56 d4 3b 1c fc 57 bc
       -0.023202391 -0.017577833 0.0064799977 -0.013182666
000240 0c ae 10 bc be b8 6e 3c c7 1c 4e bc a6 d9 ca 3a
       -0.0088305585 0.014570413 -0.012580103 0.0015476241
000250 3a b3 56 bb 1d d7 0f 3c e7 47 56 39 d9 c6 4c ba
       -0.0032760636 0.008779314 0.00020435416 -0.0007811613
000260 57 23 ba bb 84 45 6d 3c ab 6e 5e 3c 9e b3 bb bc
       -0.0056804824 0.014481906 0.01357619 -0.022912797
000270 c7 1a cc 3c 6a 88 c0 3c 89 db 80 38 13 5e be 3b
       0.024915112 0.023502547 6.144407e-05 0.0058095544
000280 22 da 83 bb c9 d0 1d bb 68 b3 12 bc 54 46 33 bb
       -0.004023806 -0.0024080744 -0.008953907 -0.0027355151
000290 4d db 05 bb 71 92 06 bd 5e 16 29 bc c6 f0 46 bc
       -0.0020424903 -0.0328545 -0.010320274 -0.012142366
0002a0 12 db 46 3a cc a8 f3 3b 5c 4d e7 bc 55 e3 3a bb
       0.00075857446 0.0074358936 -0.02823513 -0.0028516848
0002b0 ab 37 6e bb a1 25 f6 3c fe 75 92 3c 2c ef 14 3c
       -0.0036349099 0.03004724 0.017878529 0.009090226
0002c0 93 97 2d 3c 68 45 32 3c c4 87 da bb 94 34 c1 3b
       0.01059522 0.010880806 -0.0066690166 0.0058961604
0002d0 ea ee d3 bc f0 cd f2 bb 21 32 20 bc d9 c5 c9 bb
       -0.025870759 -0.0074098036 -0.009777577 -0.0061576185
0002e0 63 a1 a1 3b 1d 8b fb 3b d1 ce 80 3c 29 59 4c 3b
       0.004932569 0.0076764957 0.015723618 0.0031181073
0002f0 45 bd db 3c c6 65 29 3c 4a 5b 3c bb 57 46 5a bc
       0.02682365 0.010339206 -0.0028740936 -0.013322434
000300 2c a2 e2 bc 47 06 74 bc 8f 27 1c 3c 1a e6 8d bc
       -0.02766522 -0.014894075 0.009530916 -0.017321635
000310 9f ad 13 bb dd 04 94 ba 15 2f 53 bc 38 18 14 3c
       -0.0022533906 -0.0011292953 -0.012889643 0.009038977
000320 b7 74 7f 3c c7 f6 1b bc ea e6 05 bc 4c fc cf bb
       0.015591792 -0.0095192855 -0.00817273 -0.006347215
000330 31 e1 43 3c cf f9 f7 b9 05 74 27 3b 31 e5 e2 bb
       0.011955545 -0.00047297633 0.002555133 -0.0069242944
000340 2a a0 36 3c 23 58 4c bc 4e f4 71 3b 07 a7 07 bc
       0.0111465845 -0.012472185 0.0036919299 -0.0082795685
000350 49 36 dd 3c fc da e2 bb a6 0f 24 3c 71 4e 2f bd
       0.027003424 -0.0069230776 0.0100134965 -0.042799417
000360 ae a2 38 bc 49 06 2d 3c a7 23 20 bd 96 48 8f 3a
       -0.011269255 0.0105605805 -0.0390965 0.0010931666
000370 e2 3e f6 3c 40 53 36 bb 48 c2 bd bc 3f f7 0c 89
       0.030059282 -0.0027820617 -0.02316393 -1.6968142e-33
000380 e8 92 80 bb e1 bc 9a b9 4f 23 49 bc a7 2a 0a 3d
       -0.0039237626 -0.00029513895 -0.012276485 0.033732083
000390 91 8f e8 3c fd 1e c1 bb 1f 7d 5f b9 b5 9b 0b 3d
       0.02838877 -0.0058935867 -0.00021313548 0.03408404
0003a0 7e 6e cd 3c 0d 16 1a 3d 90 7f 50 3c ec 99 55 bc
       0.0250771 0.037618686 0.012725726 -0.013037186
0003b0 97 45 98 3c 40 fb 8d 3b 43 41 ec 3c 00 92 92 bc
       0.01858787 0.00433293 0.028839713 -0.017891884
0003c0 50 ec 8b 3d 1b 59 e3 3b 47 6f aa bc 64 bd 4d 3c
       0.068321824 0.0069381124 -0.020805014 0.012557361
0003d0 39 f8 8b ba 1c 2a 84 3c 45 da c5 bc 18 75 9b 3c
       -0.0010678835 0.01613336 -0.02415193 0.018976733
0003e0 ca bd 81 bc cc 43 ce 3c cf de bc 3c 21 61 9e 3c
       -0.015837569 0.025178812 0.023055462 0.019333424
0003f0 16 71 00 bd 47 0f 07 bb 78 2b 14 3c 23 f2 12 bc
       -0.031357847 -0.0020608471 0.009043567 -0.008968863
